HW2/autoencoder.pt (torch, 564099 bytes, 43 tensors)

encoder.conv1.weight f4 [4, 1, 5, 5]
000000 8f d0 b2 bb 8a 7a 82 be 5a 78 b8 be 24 82 ba bd
       -0.005456991 -0.25484115 -0.3602932 -0.091068536
000010 c2 39 09 be 96 a4 d0 bc 6a 5a 61 bd 8c 99 92 be
       -0.13400939 -0.025469106 -0.055017866 -0.28632772
000020 29 74 11 be 1c ee ee bd 4b 71 27 be 6f a1 59 be
       -0.14204468 -0.116665095 -0.16351812 -0.21252988
000030 e1 2c f2 3d cc 6e a9 bd 25 0b 9c 3e 08 51 51 3d
       0.11824966 -0.08273086 0.30477253 0.051102668
000040 ea 73 30 bd 10 db 4f bd 9a 63 f5 3c 1a 78 48 3e
       -0.043079294 -0.050746024 0.02995472 0.19577065
000050 5d ac 82 3d ba 93 75 3d 54 32 94 3d 3f ca ca bd
       0.06380532 0.059955336 0.07236162 -0.09901857
000060 49 a0 af 3e 2c c4 70 3e 08 2d dc bd 02 fb 12 3c
       0.34301975 0.23512334 -0.107507765 0.008970978
000070 a1 5e e0 3d ec d4 27 3e 8a 59 fa bc a7 aa a8 3b
       0.10955549 0.16389817 -0.030560274 0.0051472965
000080 98 45 70 3e 1e 8a 24 3d 72 71 b1 3c b8 93 96 3d
       0.23464048 0.04017078 0.02166054 0.07352394
000090 bf 63 06 bd 38 e5 8a 3d b1 5f b6 3c c9 13 e0 3d
       -0.03280997 0.06782001 0.022262426 0.10941274
0000a0 ae 08 4d 3e 8d ee dd 3d 6b 89 45 3d d9 2b 90 3c
       0.20022842 0.108365156 0.048226755 0.017599033
0000b0 45 5e 52 bb 3d 4d 52 3e 4b 8d 5a 3e ea 5d 7b bd
       -0.0032099646 0.20537277 0.21342961 -0.06136886
0000c0 f8 6c a4 bd 2d 20 25 bd 6b 2a 94 3d c0 87 77 3d
       -0.08028597 -0.04031389 0.07234653 0.060432196
0000d0 c0 fc 6c be f9 6c 50 be a8 12 2a be 4e ad 52 be
       -0.23143291 -0.2035407 -0.1660868 -0.20573923
0000e0 93 77 64 be d2 7a 4f be 2b 7e a6 bd 87 7a b0 bd
       -0.22311239 -0.20261696 -0.081295334 -0.0861712
0000f0 fe 93 da bc e3 62 a7 3d f0 45 f9 3c 9e e5 3c 3e
       -0.026681896 0.08173158 0.030428857 0.18446967
000100 ff 4b a2 bd a9 01 e0 bd 9d ce 45 3e 9b c9 ce bc
       -0.07924651 -0.10937817 0.19317098 -0.025242617
000110 1e 2d 94 3d a1 5d 0e bd e4 c5 22 be c3 4c 9f 3d
       0.07235168 -0.03475726 -0.15895802 0.07778313
000120 e9 b7 74 3d b8 fc 2d 3d 83 19 33 be c5 7f d9 3d
       0.059745703 0.04247734 -0.174902 0.10620073
000130 d4 cd d0 bd a3 06 59 bd a8 64 12 bd b4 17 b4 3d
       -0.101955086 -0.052984845 -0.035740525 0.087935835
000140 81 89 03 be 55 6d 42 be fc 09 1a be 23 b2 70 bd
       -0.12845422 -0.1898702 -0.15042871 -0.058763634
000150 65 eb b5 3d 91 a1 4d be d6 04 15 bd 76 90 4a 3d
       0.088827886 -0.20081164 -0.036381565 0.049454175
000160 cb e3 11 be f9 c3 d4 bd f9 0d ab 3d 80 f5 d7 3d
       -0.14247052 -0.10388941 0.083522744 0.10544872
000170 b6 91 16 bc 9d 49 f1 3d 80 72 f7 bd 15 3e 8a 3d
       -0.009190014 0.11781619 -0.12082386 0.067501225
000180 15 56 b2 3d 97 3c c7 bd 03 31 ba bd 30 a5 3e be
       0.08707825 -0.097283535 -0.090913795 -0.18617702

encoder.conv1.bias f4 [4]
000000 80 38 5b bb 57 20 8e 3d 64 92 70 3e 43 0e 53 3e
       -0.0033450425 0.06939762 0.23493344 0.20610909

encoder.conv2.weight f4 [8, 4, 5, 5]
000000 4d a9 10 3d 08 ae a8 3d 44 92 bb bd af ef 6c 3d
       0.035317708 0.08236319 -0.09158757 0.057845768
000010 80 94 cc 3d 80 fc ab 3c 0d 91 fc 3c fc be cc bd
       0.099892616 0.020994425 0.030830884 -0.09997365
000020 5c 83 cd 3d 24 98 8f 3d f4 11 d6 bb af 03 c4 bc
       0.100348204 0.070114404 -0.006532902 -0.023927538
000030 85 a3 02 be 85 13 57 bd f9 20 ab bd f0 63 32 bd
       -0.1275769 -0.05250885 -0.083558984 -0.04355234
000040 b0 16 25 bd b4 77 8e bd d4 b2 8c bd 04 fa 90 bd
       -0.04030484 -0.06956425 -0.06870046 -0.07078937
000050 bf b8 0a 3c 06 54 78 3c 67 35 23 bd fe 82 6b ba
       0.008466898 0.0151567515 -0.03984585 -0.0008984058
000060 32 cc 91 3d fc f8 d2 bc b6 d5 31 bd ea 93 e8 bd
       0.07119025 -0.02575349 -0.0434167 -0.11356337
000070 1b 9a 86 bd 05 4a eb bd 1a 21 30 be 4b f8 2e 3c
       -0.06572362 -0.114887275 -0.17200127 0.010679315
000080 16 3f ee bd a9 01 af 3d ae ac 78 3d c1 cb 05 bd
       -0.116331264 0.085452385 0.060711555 -0.032665018
000090 8c 55 6d bd 7c 1a e3 bd ab 4b 93 3c 75 d0 24 be
       -0.057942912 -0.11089036 0.017980417 -0.16095145
0000a0 f9 6f 29 bd f4 3e fd bd 55 82 2d be a8 3c 49 3c
       -0.04136655 -0.12365523 -0.16944249 0.012282528
0000b0 ad 0b 12 bb a4 b3 d1 bc c4 43 e2 bd 0e 3e 2b be
       -0.0022284791 -0.025598355 -0.110480815 -0.1672289
0000c0 4c ab 03 3d 68 f2 d0 bd 10 c0 ab bd 51 fd a2 3d
       0.032145783 -0.10202485 -0.083862424 0.079584725
0000d0 1c 5e 13 3d f4 dc 67 bd 7d a2 c0 3d fe 54 5f bd
       0.03597842 -0.0566072 0.09405992 -0.054524414
0000e0 9e 12 8a bd 00 62 7c 3d b4 18 1a 3d 50 53 1a 3e
       -0.06741832 0.061616898 0.037621215 0.15070844
0000f0 f7 61 fb bd 45 b1 61 bd ff 28 34 3e 1a 00 b0 3d
       -0.12274545 -0.055100698 0.17593764 0.08593769
000100 50 cf 1e 3e a4 1f b9 bd b9 82 1e be e4 69 06 3d
       0.15508771 -0.09039238 -0.15479554 0.03281583
000110 ef f6 4d bd 1b 99 41 bc b4 7c 8a bd 99 98 88 bd
       -0.050284322 -0.011816288 -0.067620665 -0.06669731
000120 9e 88 07 3e 02 1c 37 bb 61 96 31 bc ec 1c 04 3d
       0.13235709 -0.0027940278 -0.010839076 0.032254145
000130 23 95 b5 3d ec 46 0e 3e 70 76 80 3d a6 3e 52 3d
       0.08866336 0.13894242 0.0627259 0.051329277
000140 ef ab 1c bc 9f cb b0 bb 2e c7 17 3c 40 2e 56 3c
       -0.009562477 -0.0053953673 0.009263797 0.01307255
000150 92 b1 56 3d 1e 1b b5 3d bf db a1 bc 4d 50 a5 3d
       0.052415438 0.08843063 -0.019758103 0.08071957
000160 12 7b 34 bd 99 26 ab 3d fd f8 fc 3d a9 9d 64 bd
       -0.04406268 0.08356971 0.12352178 -0.05581442
000170 75 08 99 bd b8 89 be 3d ae a6 e5 3d 91 19 15 3e
       -0.07472316 0.093036115 0.11213432 0.14560534
000180 de 6a d2 3d bf 74 b2 bd d1 1a 5b bd 75 6b 8a 3d
       0.102742895 -0.08713674 -0.05349237 0.06758777
000190 a2 7e cd 3c 56 7e a5 bc f5 5b 60 3d 0c be 78 bc
       0.025084797 -0.020201843 0.054775197 -0.015182029
0001a0 31 c3 6a 3d f6 d8 fe 3c 6c 29 5b bd eb a5 51 3d
       0.057315055 0.031109314 -0.0535063 0.051183622
0001b0 62 30 93 3d 45 81 28 bc 0e c3 10 bd 9b e6 c9 3d
       0.07186963 -0.0102847265 -0.03534227 0.09858438
0001c0 c4 50 84 bd 02 94 06 3d 16 80 b0 3d f2 43 23 3d
       -0.06460717 0.032855995 0.086181805 0.03985972
0001d0 fa 2e e2 3b 3d d8 ce bd e5 9b 63 bd 25 82 29 bd
       0.0069025727 -0.10099838 -0.055568594 -0.04138388
0001e0 da d5 98 3d fc 7c 93 3d 1c 78 ef bd 38 07 01 bd
       0.07462664 0.07201573 -0.11692831 -0.031501025
0001f0 1d d4 af 3d b1 b8 fd bc ab ce a0 bc 59 9c 9d bd
       0.08585379 -0.030971857 -0.019629797 -0.076958366
000200 42 d2 58 be c8 8a a7 bd ff 46 26 bd f7 f6 35 bc
       -0.21173957 -0.08180767 -0.04059505 -0.011106244
000210 a7 78 34 bc 82 1f 87 be 82 22 fe bd e1 15 9d bc
       -0.011015094 -0.26391226 -0.124089256 -0.019175472
000220 13 28 05 be d6 c3 0e be 40 18 78 be ea d0 fc bd
       -0.13003568 -0.13941893 -0.24228 -0.12344535
000230 ee bc f6 3c 7d b6 ce 3c a9 4e 06 be 5c a0 06 be
       0.030119386 0.025233502 -0.13115944 -0.1314711
000240 31 0d 2c be 24 eb 30 bd 7a 9b 34 bd 98 cb 91 bd
       -0.16801907 -0.043192998 -0.044093587 -0.071189106
000250 c2 e8 2e be 77 a4 51 3c 1f 8d 02 3e f8 71 dd bc
       -0.17080978 0.012795559 0.12749146 -0.027031884
000260 18 a4 01 3d a4 87 2b 3e f3 82 f1 3d 10 8f 67 3c
       0.031650633 0.16750962 0.11792555 0.01413323
000270 29 de 51 ba 24 d2 f1 3d 52 5f 87 3c aa c9 dc 3d
       -0.0008005822 0.11807659 0.016524944 0.10780652
000280 86 34 bd 3d 5f 08 20 3d b2 bd 30 3d 74 30 f2 bc
       0.09238534 0.039070483 0.043149658 -0.02956412
000290 94 94 ff 3d 07 cc da 3d 76 41 7f bd 62 89 19 bd
       0.12479511 0.106834464 -0.062318288 -0.037484534
0002a0 06 8c 94 3d d0 74 f0 3d 8f b9 5b 3c c7 a4 34 bc
       0.0725327 0.1174103 0.01341094 -0.011025614
0002b0 89 b7 8b 3c 74 9d d5 3d bb e2 60 3d b2 3e 11 3c
       0.01705529 0.104304224 0.054903727 0.008865045
0002c0 a3 f1 52 3b e1 33 0d bd 5d c3 07 bd 41 7c 2d 3d
       0.0032187484 -0.034473304 -0.033145297 0.042354826
0002d0 e8 67 f5 3c 7c 75 02 bd ac 17 67 bd 30 d0 41 3d
       0.029956773 -0.031850323 -0.05641906 0.047317684
0002e0 3a 48 f6 3d 94 f2 52 bd e7 f8 88 3d 6c 86 02 bd
       0.12025495 -0.05150087 0.06688099 -0.031866476
0002f0 58 87 6b bd 5c dc 84 3d 64 d9 4e bd 8c 2d 2d be
       -0.05750212 0.06487343 -0.05050029 -0.16911906
000300 51 be 12 3b bb 58 90 b8 35 b5 55 bd 02 7d e2 bd
       0.002239127 -6.8829824e-05 -0.052174766 -0.110589996
000310 68 8e b0 bd d7 0f d4 bd 72 1f f4 3d 3a 57 f9 3d
       -0.08620912 -0.10354584 0.1192006 0.1217484
000320 30 2a b8 3d 1e d1 8e 3d 46 75 aa 3c f3 3d 99 3b
       0.089924216 0.0697348 0.020807873 0.0046765744
000330 4c 0b 56 3d f6 7b 25 bd 10 e0 47 3d 89 91 ee 3c
       0.052256867 -0.04040142 0.048797667 0.029122131
000340 a2 2e e8 3b 7b 68 92 bd fa 44 58 3d b6 ef 11 bd
       0.007085637 -0.07148834 0.052800156 -0.035628997
000350 a8 8a d1 bb 3a d8 b6 bc fe 5d c8 3d fd 50 49 3d
       -0.006394703 -0.022319902 0.097835526 0.049149502
000360 72 41 63 3d 9e d1 9f bb a4 81 e7 3d 94 e7 08 bd
       0.055482335 -0.0048772832 0.11304024 -0.033423975
000370 74 f2 b7 3c 01 d0 be bd 13 7d 9f bd da 0d 8a bd
       0.022454478 -0.09317017 -0.07787528 -0.06740923
000380 60 9b 88 3c d8 26 db 3a e0 e8 a3 3b 13 72 ab bd
       0.016675651 0.001671995 0.005002126 -0.08371367
000390 a4 7a 06 3d ce c4 63 3d 5e 20 df bd c2 79 e2 bd
       0.032831803 0.05560761 -0.108948454 -0.1105838
0003a0 a1 38 dc bd d4 1e 9f bd f9 bb a6 bd 84 41 99 3c
       -0.107529886 -0.07769552 -0.08141322 0.018707998
0003b0 00 05 e3 bd 46 9e be bc 15 74 b4 3d 20 37 4a bd
       -0.11084938 -0.02326883 0.088112034 -0.049368978
0003c0 21 a8 a4 bd 94 54 b9 3c e6 48 b6 bd 24 05 33 3d
       -0.080398805 0.022623338 -0.08900623 0.043706074
0003d0 3c 14 67 3c 65 1d 56 bc 0a 54 18 be b5 de a2 bb
       0.014103945 -0.013068532 -0.14875808 -0.0049703964
0003e0 d9 8a f7 3d 71 0c c2 3d 3d 6c 47 3d 7d 4f 1a 3e
       0.1208703 0.09475029 0.04868721 0.15069385
0003f0 b1 fd d2 3d 10 ab 30 3d 76 63 bc 3d 8e 11 9c 3d
       0.10302294 0.043131888 0.09198658 0.07620536

encoder.conv2.bias f4 [8]
000000 a5 68 a9 b7 57 c7 31 bb 12 82 22 39 f5 18 0f 3a
       -2.0195099e-05 -0.0027126872 0.00015497979 0.0005458736
000010 cd 71 97 ba ed 19 ba b7 da 79 a2 38 7d 4d 90 3a
       -0.0011554301 -2.2185e-05 7.7474586e-05 0.0011009421

encoder.bn1.weight f4 [8]
000000 56 80 6b 3f 9e fc 81 3f 83 16 81 3f b6 15 88 3f
       0.919927 1.0155218 1.0084995 1.0631626
000010 b9 5e 88 3f f2 d2 81 3f c5 17 7b 3f 72 7e 58 3f
       1.0653907 1.01425 0.98083144 0.8456794

encoder.bn1.bias f4 [8]
000000 9a b3 ae bd ac 94 12 3c c0 ae 19 3e 67 c0 07 bd
       -0.0853035 0.008946579 0.15008068 -0.033142474
000010 64 ca 58 3d e9 e0 e3 bc dc 1f 16 3d 1c 11 27 3e
       0.05292739 -0.027817206 0.036651477 0.1631512

encoder.bn1.running_mean f4 [8]
000000 83 88 71 bf 66 9a b0 bf e1 bd 2d be af 8c 9f bf
       -0.94348925 -1.3797119 -0.16966964 -1.2464808
000010 bc b2 71 bf fa a1 6d bf 62 cd 3f 3f 2a ed 86 bf
       -0.9441335 -0.9282528 0.74922764 -1.0541127

encoder.bn1.running_var f4 [8]
000000 b4 99 dc 3e 99 0b 6c 3f 74 6a 43 3e c3 95 81 3f
       0.43086016 0.92205197 0.19083577 1.0123829
000010 4a f5 f8 3e 35 47 4f 3f b1 44 55 3f e8 28 8b 3e
       0.4862464 0.8096803 0.8330794 0.27179646

encoder.conv3.weight f4 [16, 8, 5, 5]
000000 b0 6e a9 3d 14 3a b6 3b ec ea e5 3d fc 59 15 bd
       0.08273065 0.0055611227 0.112264484 -0.03646277
000010 5b e7 b9 bd 62 34 95 3d 5d 84 55 bd a4 7b 42 3d
       -0.09077331 0.07285382 -0.052128185 0.047481194
000020 81 a0 8a bc d5 63 ed 39 6e d9 24 bd 08 30 c5 bd
       -0.016922237 0.00045278543 -0.04024642 -0.09628302
000030 2b 45 9f 3d 70 05 ef bd f4 23 81 bd c3 7e 82 3c
       0.077768646 -0.11670959 -0.06305686 0.015929585
000040 6e 93 80 bb e6 00 cd 3a 6d 65 51 bd 78 f2 01 be
       -0.003923825 0.0015640527 -0.051122118 -0.1269015
000050 c6 d7 ec ba 8e 9b b0 3c d0 2a 22 bb 69 17 ab bb
       -0.0018069677 0.02155855 -0.0024744757 -0.0052212966
000060 14 eb b3 bd 21 52 31 bd ba 7e 6e 3c 89 cc 45 bd
       -0.08785072 -0.043291215 0.014556581 -0.048290763
000070 8d 96 f5 bd 40 60 71 3d 90 96 67 bd 46 eb 6b 3d
       -0.11991606 0.05892968 -0.056540072 0.05759742
000080 cf 80 15 bb fa e7 cc bd c5 ea ae bd f6 f8 57 3c
       -0.0022812372 -0.100051835 -0.085408725 0.0131819155
000090 dd f0 09 3d c8 af f5 3b 9e de 31 bd cc 69 80 bd
       0.03367697 0.0074977614 -0.043425195 -0.06270179
0000a0 9d 4c b8 3d 52 51 5c 3d f5 c5 de bb f4 09 02 bd
       0.08998988 0.05378849 -0.0067985007 -0.031747773
0000b0 b6 8d ca bd 64 c3 e7 39 2e a0 1f 3d 12 04 cb 3b
       -0.098903105 0.0004420533 0.03897112 0.0061955536
0000c0 e7 76 8f bd 72 70 a7 bd fb cb 78 3c 28 47 3c 3c
       -0.07005101 -0.08175744 0.0151853515 0.011491574
0000d0 cc 3b 19 bd 63 ff 58 bd 78 85 de bd 80 f6 5e 3c
       -0.037410542 -0.05297793 -0.10865301 0.013608575
0000e0 a0 ab e4 bd ef b1 dd bd 76 f3 4e bd ae 9a f6 bd
       -0.11165547 -0.10824954 -0.05052515 -0.120412216
0000f0 95 44 57 bd 43 64 d8 bd 42 7a ed bd bc ed 6b bd
       -0.05255564 -0.105659984 -0.115955845 -0.057599768
000100 67 11 c6 bd 7f ee ea bc ce b9 91 bd 79 6a 48 bc
       -0.09671288 -0.028678177 -0.071155176 -0.012232416
000110 93 6d 43 bd f2 37 e0 bc d1 25 d7 3b 5b be a6 3d
       -0.04771192 -0.027370427 0.0065657874 0.08141776
000120 02 91 b4 3d f9 81 f9 bd 3f 16 5d bd f1 5e 7e bc
       0.088167205 -0.121829934 -0.053976294 -0.0155255655
000130 d3 34 87 bd 19 6a 6a bd 07 81 c0 bd 50 8c 35 bc
       -0.06601872 -0.05723009 -0.0939961 -0.011080816
000140 2f 22 90 bd e3 0b f7 bc f6 ad 0a bd 5a 95 3a 3c
       -0.0703777 -0.030157035 -0.03385731 0.011388147
000150 14 dc e3 3d fc 76 74 bd 36 77 d6 3b ee d2 97 bd
       0.11125961 -0.059683785 0.006544973 -0.074132785
000160 bf bc ec 3d 08 c6 91 3d f1 c8 f7 bd f0 c9 e4 bd
       0.11559438 0.071178496 -0.120988734 -0.11171329
000170 76 ae 4d 3d 9b 5a d8 3d 44 70 6e bd af dc 45 bd
       0.050215207 0.105641566 -0.058212534 -0.048306163
000180 06 51 c7 3d 81 28 6a 3c fb fd 8b bd 66 d0 83 bd
       0.09732251 0.014291883 -0.06835552 -0.06436233
000190 e4 e0 09 bd 20 ea 83 bd 5c d2 b0 bc 6d f6 a4 bb
       -0.033661738 -0.0644114 -0.021584682 -0.005034259
0001a0 ae 79 02 3c 32 18 13 bd b8 b2 a2 bd cd 2d 4e 3c
       0.007963581 -0.035911746 -0.07944244 0.012584162
0001b0 a6 a7 e6 bc a3 6d bf bd 71 11 75 3c 74 d4 55 bc
       -0.028156113 -0.093470834 0.014957772 -0.013051141
0001c0 46 a5 ac bd fe 16 a5 bd aa 7c 55 bb 7d 87 a7 bd
       -0.08429961 -0.08061026 -0.0032575526 -0.08180139
0001d0 c1 36 db bd 9a d5 aa bd 7b d6 00 bd f8 d5 ac bd
       -0.10703803 -0.083415225 -0.031454545 -0.08439249
0001e0 26 46 e1 3b e3 b9 b8 bd 0f 64 ba bc ef aa b8 bd
       0.0068748174 -0.0901983 -0.02275279 -0.09016978
0001f0 3f 99 e6 bd 77 00 ce 3d 84 b3 cb 3c b9 41 c7 bc
       -0.11259698 0.100586824 0.024865873 -0.024323331
000200 b7 a6 ae bd 62 78 bb bd ef 44 f3 ba e3 db 8b bd
       -0.08527892 -0.091538206 -0.0018559973 -0.068290494
000210 af 34 73 bd 3b 09 0d 3c 3b 97 67 bd f0 16 ab bd
       -0.059376415 0.008608158 -0.05654071 -0.08353984
000220 c1 72 f8 bc c2 3f fc bd d3 46 60 bd 2c dc c9 bd
       -0.030328156 -0.12316848 -0.054755043 -0.098564476
000230 af 33 95 bd b1 29 1a bd 36 77 d5 bd b0 2b 1e bc
       -0.072852485 -0.037637416 -0.10423128 -0.009653971
000240 c6 a0 c6 bd 0f 24 7a bd 8c 7d 63 ba 7a 1f 45 3a
       -0.09698634 -0.061069544 -0.0008678071 0.0007519644
000250 87 2f 05 bb ec fe 60 bd 43 eb 0f bd 37 58 ef bc
       -0.0020322518 -0.054930612 -0.035136472 -0.029216869
000260 62 4e 03 bd 3d 6b 8b bd b8 47 80 3d d1 88 74 bd
       -0.032057174 -0.068075635 0.06263679 -0.05970079
000270 b8 75 a3 bc 1c 92 15 bd ab dc 38 bd 12 fd 87 3d
       -0.019953594 -0.036516294 -0.04513232 0.06640066
000280 78 cc ca bd 3b a9 79 bd cd 44 99 3d 0e 8b b0 bc
       -0.099022806 -0.060952406 0.07483826 -0.021550681
000290 04 c4 cc 3d 94 00 c8 bd 7a 30 a2 bc 34 63 4e 3a
       0.099983245 -0.09765735 -0.019798506 0.0007873059
0002a0 33 6e a8 bd b2 12 1b bd 81 70 88 bd c1 42 f2 b9
       -0.08224144 -0.037859626 -0.066620834 -0.00046207572
0002b0 7b 68 5d 3d c6 68 ce 3b 54 38 60 bd 2b cf 80 bd
       0.05405472 0.006299111 -0.05474122 -0.06289514
0002c0 65 90 88 3a 4d 5c b2 bd d3 1c 3a bd fb 34 23 bd
       0.001041901 -0.08709011 -0.045437645 -0.039845448
0002d0 af 22 dc bd bd d0 d8 bd 66 c7 6b bd 43 2e 82 bd
       -0.10748803 -0.10586689 -0.057563208 -0.0635648
0002e0 6b 1b c7 bd e4 d8 f0 bd d6 88 b0 bd 0c f8 eb bd
       -0.097220264 -0.117601186 -0.086198494 -0.115219206
0002f0 a0 73 ff bd 31 b8 10 bd 9f f2 93 bd 83 95 c5 bc
       -0.124732256 -0.03533191 -0.07224011 -0.024119144
000300 96 3e d5 bd 63 ed c0 bc 6b f9 3a bd 45 a4 bc 39
       -0.10412328 -0.023550695 -0.04564802 0.00035980545
000310 ce b3 9b bd 9e de 56 bd 36 8d a6 bd 12 c1 2f bb
       -0.076026544 -0.052458398 -0.081324026 -0.002681796
000320 4d 9a 80 bd 20 b3 f1 3c 18 94 32 3d 00 6d 48 3d
       -0.062794305 0.029504359 0.043598264 0.048932076
000330 d5 70 99 3d e4 2b be bb ad 8b ab bc 65 5b ce bc
       0.07492224 -0.005803572 -0.020940626 -0.025190065
000340 14 55 39 3d 38 2f f7 3d 4a 0a 8c 3c 9e a0 e8 3a
       0.045247152 0.12069553 0.01709475 0.0017748063
000350 e5 f9 5d bd 66 c0 b2 3d a4 22 c2 3d 37 6e 09 3d
       -0.054193396 0.08728103 0.094792634 0.033552375
000360 7f 09 7a bd d0 51 64 bd fd ac 77 bb c3 0a a6 3c
       -0.061044212 -0.055742085 -0.0037792318 0.020268803
000370 1a d0 4d bd 65 34 82 bd 14 e6 ce bd 56 8d e3 bb
       -0.05024729 -0.0635765 -0.10102478 -0.006944339
000380 96 94 83 3d 87 35 a5 3d a0 33 49 3e 95 09 2c 3e
       0.06424825 0.0806685 0.196486 0.1680053
000390 79 0b 53 3e b4 61 3a 3e 5c 59 19 3e ec 22 d6 3d
       0.20609845 0.18201333 0.14975494 0.104558796
0003a0 15 8a 0f 3e e7 8c 42 3e 41 75 b9 3d 95 53 7a 3d
       0.14017518 0.18999062 0.090555675 0.061114866
0003b0 5b 3e 5d 3d d5 53 45 3e ae 4b 1b 3e f2 91 10 3e
       0.054014545 0.1927026 0.15165588 0.14118174
0003c0 e3 13 a9 3a fe c0 fd 3d 5f a8 c7 3d 03 d1 9a 3d
       0.0012899603 0.12390326 0.09748911 0.07559397
0003d0 ea 45 4f 3d 34 5c 54 3d 65 42 d7 3d bd 33 20 3e
       0.050603785 0.051845744 0.105107106 0.15644737
0003e0 3a dd 94 3d 50 1b 09 3e 8e 78 0a 3e fc 8d 3c 3d
       0.07268758 0.13389325 0.1352255 0.046033844
0003f0 13 c3 f8 3d 43 74 6c 3d 58 2f 0f 3e 1e 29 8e 3d
       0.121465825 0.057728063 0.13982904 0.06941436

encoder.conv3.bias f4 [16]
000000 cd d7 d0 bb 03 25 c7 bc b6 c2 b2 bd ff 8d 4e 3d
       -0.0063733817 -0.02430964 -0.087285444 0.050428387
000010 8c f0 e9 bd d6 dc 23 3d ca df c1 3c df 1f 98 bd
       -0.11422834 0.040005527 0.023666281 -0.07427954
000020 0e fc f0 bd df ba f4 bc ea 57 ec bd 59 0c 5b bd
       -0.117668256 -0.029874263 -0.11540206 -0.053478573
000030 53 e5 d1 bd a1 dd 45 3c 3c be 13 bd 6b de 23 bd
       -0.10248818 0.012076766 -0.036070094 -0.040007036

encoder.conv4.weight f4 [32, 16, 5, 5]
000000 ae 07 75 3d a5 56 86 3d 77 af 16 bd 27 00 47 bd
       0.059821777 0.06559495 -0.03678843 -0.04858413
000010 f7 f2 7e 3d 1c fc 13 3d 00 cc b6 3b 28 ce 9f bd
       0.062243428 0.036129102 0.005578518 -0.07802993
000020 e9 86 36 bd b2 57 b5 3c 29 8c 91 3c 9f ac 47 bc
       -0.044562254 0.022136543 0.017767029 -0.012187152
000030 8d d2 9f bd 76 f1 49 3c 57 b7 94 3d f3 38 7c 3d
       -0.07803831 0.012325635 0.07261532 0.06157775
000040 d4 6f c8 3c 12 22 b9 bb 93 ee 20 3d 3b a2 2f 3c
       0.024467386 -0.0056498135 0.039290022 0.010719831
000050 42 e4 7b 3d aa f0 ec bc dc c7 c5 bb 63 e9 15 3d
       0.06149698 -0.028923351 -0.006035788 0.036599528
000060 65 a2 95 3d ae b1 1d 3d cc 94 59 bd a0 0b 5c 3b
       0.07306365 0.038499527 -0.05312042 0.0033576265
000070 00 6c 8e 3d 5b ea 89 3d ad 35 cf 3c 96 a8 ac bb
       0.06954193 0.06734153 0.02529415 -0.0052691204
000080 43 10 3a bd 9e 50 c1 3c 35 21 52 3d 1e 21 15 bb
       -0.045425665 0.023598012 0.0513012 -0.0022755335
000090 5e 9c 09 bd 84 da 93 bd 10 50 61 3c 44 21 92 3d
       -0.03359639 -0.07219413 0.013751999 0.07135251
0000a0 db 8c ea bb 19 b3 4d bd f9 5c 4f bd 3d af b9 3d
       -0.0071579046 -0.05021963 -0.050625775 0.09066627
0000b0 6e f9 a2 3d e1 b8 6a bd 6c 30 8d bc 90 ae 01 bd
       0.07957731 -0.05730522 -0.017235003 -0.031660616
0000c0 78 35 20 3d 39 8a 39 3c f7 ba d5 bd e4 ce 1f bd
       0.03911349 0.011324459 -0.10436051 -0.039015666
0000d0 25 31 a8 3d 31 e6 cb bd e8 7a b3 bd e4 f4 62 bd
       0.082124986 -0.09956015 -0.08763677 -0.055409327
0000e0 44 55 4c 3d 28 e9 ba 3d 9a 4a b3 bd ee 16 4d bd
       0.049886003 0.09126502 -0.087544635 -0.050070696
0000f0 ed b5 98 bc bf 4b 36 bd de 5d 92 3d ff 52 03 bd
       -0.018641436 -0.04450583 0.0714681 -0.032061573
000100 f5 c0 d3 bd f8 4d 83 bd 3f e8 c7 bd f1 fa 0e 3b
       -0.10339538 -0.06411356 -0.09761094 0.0021817053
000110 51 35 83 3b b3 8f 8a bd 14 a4 8c bd 75 65 24 3c
       0.0040041585 -0.0676569 -0.06867233 0.010033955
000120 69 5c a9 3d 9c 11 06 3c 02 61 20 bd 49 e2 50 3d
       0.08269579 0.008182909 -0.039155014 0.050997052
000130 8d b8 f8 3d 0b 4c f9 3d 18 1a ef 3c aa 4a a5 bc
       0.12144575 0.12172707 0.029187247 -0.020177204
000140 45 5a 90 3d 98 7e 3e 3d 31 19 e4 3d 0e 73 b4 3d
       0.070484675 0.046507448 0.111376174 0.088110074
000150 21 7d 5d bd e8 e9 8c 3d ac 00 80 3d 18 2d 98 3d
       -0.05407441 0.068805516 0.06250128 0.07430476
000160 86 9d 99 3c 13 5d c4 bc b5 e9 41 3d 03 88 d3 3d
       0.01875187 -0.023970162 0.04734202 0.103286766
000170 66 bb 9a 3d d4 e5 be 3c 6f 30 14 bd a0 8a 80 3d
       0.07555275 0.02330295 -0.036179002 0.062764406
000180 40 70 ff 3c fd f7 6a 3c cf 0b 47 3d 20 3a 3f bd
       0.031181455 0.014341352 0.048595246 -0.04668629
000190 7e 08 04 bd 6b d1 43 bd 82 f2 ea bc 8f d1 c1 bd
       -0.03223466 -0.04780714 -0.02868009 -0.09463798
0001a0 ca ac 36 bd 6b 52 e2 bc d8 41 bb bd bb da 3f bd
       -0.04459838 -0.02762719 -0.09143418 -0.046839457
0001b0 4d 31 a1 bd ce 72 2f bd 09 6e 9d bd ea dd c9 bd
       -0.078707315 -0.042834096 -0.07687003 -0.0985678
0001c0 b5 e7 75 bd aa 09 84 bd 2e f6 5d bd c7 f3 48 3d
       -0.060035426 -0.06447156 -0.054189853 0.04906061
0001d0 55 1e fb bc 13 f6 29 bd 47 6f 28 bd b8 ae f2 3c
       -0.030654112 -0.04149444 -0.041121747 0.029624328
0001e0 6d 46 78 3d a6 3d 97 bc c2 d4 77 bd e3 f8 81 bd
       0.06061404 -0.018462013 -0.060505636 -0.063462995
0001f0 ad 1b 19 3d 5d 38 9c 3d 95 40 80 3d 6d f8 ae 3c
       0.03737991 0.07627938 0.06262318 0.021358693
000200 1f 06 18 bd a3 ac cf bc 27 7e 48 3d bf 5c 99 3c
       -0.037115213 -0.025350874 0.048948433 0.018720983
000210 82 e5 d7 bc 55 83 95 bd 06 b6 5a 3b eb 73 8d 3d
       -0.026354555 -0.0730044 0.0033372655 0.06906875
000220 4b 92 31 3d 06 ad b1 3d 24 0e 1b 3d 67 57 5b 3d
       0.043352406 0.0867558 0.037855282 0.05355015
000230 9c 07 0d 3d a0 5d 07 3c 5e 66 95 3d e4 f8 8b 3d
       0.034431085 0.008262068 0.072949156 0.068345815
000240 53 1e 85 3d e6 41 21 3d 82 db ce 3d 41 51 06 3d
       0.064999245 0.039369486 0.101004615 0.032792334
000250 bd 85 27 3d 42 26 10 3c c0 3e 95 3d d4 c7 1d 3d
       0.040899027 0.008798184 0.07287359 0.03852065
000260 82 2b a4 3d 7e 72 96 3d 70 d4 26 3d 3f 54 25 3d
       0.08016111 0.073460564 0.04072994 0.040363546
000270 c3 18 7d 3d 6d fb 3f 3d 08 95 90 3d 71 88 3a 3d
       0.061791193 0.046870638 0.070596755 0.045540277
000280 56 51 98 3d a8 2b 1e 3d 17 55 c8 3c 59 86 f6 3c
       0.074373886 0.038615853 0.024454636 0.030093359
000290 a1 f6 c4 3d 84 c6 87 3d f1 90 f5 bc d9 c6 1b 3d
       0.09617353 0.06629661 -0.02997634 0.038031433
0002a0 ff 54 0b 3d be 00 6a 3d f1 09 46 3d 18 ff 29 3d
       0.034016605 0.057129614 0.048349325 0.041503042
0002b0 5b 9b 63 3d 78 a4 84 3d 67 3e 7f 3d e3 4d 0a 3d
       0.05556808 0.064766824 0.06231537 0.033765685
0002c0 70 10 99 3d a8 d0 cb 3d 34 e2 33 3d 7d a4 42 3c
       0.07473838 0.099519074 0.043916896 0.011880037
0002d0 3c 37 05 bc dc f5 e8 ba ff 5d 49 3d 92 18 bb bc
       -0.008130845 -0.0017773467 0.049161907 -0.022838864
0002e0 c1 b5 8b 3c a6 45 88 bd c5 10 8d bd 8c 16 95 bd
       0.01705444 -0.066539094 -0.06887964 -0.07279691
0002f0 27 7b 6d bd 45 04 43 3c 00 5c aa bd aa 03 bf bd
       -0.057978775 0.011902873 -0.08318329 -0.09326871
000300 f2 21 9b bd c5 d3 8f bd b0 9e 9e 3b 7f d8 19 bd
       -0.07574834 -0.07022814 0.0048406944 -0.037559982
000310 33 31 64 bd 00 a2 a3 bd 54 3d 05 bd c2 67 36 3d
       -0.055710983 -0.079898834 -0.03252919 0.044532545
000320 a0 48 97 bd d6 42 a3 bd f5 e9 bf 3c ac 3c d8 3c
       -0.07386899 -0.07971732 0.02342699 0.026396118
000330 12 63 a4 bd 10 22 bf bd 01 fd 39 bd 14 62 c2 3d
       -0.08026709 -0.09332669 -0.0454073 0.09491363
000340 67 93 db 3c 43 84 90 bc 0c 15 a3 bd fd 18 88 bd
       0.026803685 -0.017641192 -0.07962999 -0.06645391
000350 05 34 46 3d b1 d0 81 3c a4 51 89 bc 78 1d 5e bd
       0.048389453 0.015846582 -0.016762562 -0.054227322
000360 26 e7 a4 bd 18 bf 8d 3d 03 00 bd 3c fe 1c 9c bd
       -0.080519006 0.06921214 0.023071295 -0.07622717
000370 4d 42 af bd 32 63 77 bd 04 82 6b 3d 24 f1 c7 3c
       -0.08557568 -0.060397334 0.05749704 0.024406977
000380 94 17 92 bd a4 cb 22 bc 2e 6c 8e bd 3f 41 53 3d
       -0.071334034 -0.009936247 -0.069542274 0.051575895
000390 75 68 3b bd 5f ad 16 3c c3 85 6d bd 2c ef ce bc
       -0.045753915 0.009196608 -0.057988893 -0.02526053
0003a0 b6 46 d0 3c 1a 08 36 bc 28 98 91 3c 6a bb 8d bd
       0.025424343 -0.01111033 0.017772749 -0.06920512
0003b0 2d f7 ec bb 9e 14 c2 3c 0d 28 34 bd 64 53 a0 bb
       -0.007231614 0.023691472 -0.043983508 -0.0048927534
0003c0 2c c3 17 bd 9c 87 af bc 43 67 ed 3c ed 3f 07 bd
       -0.037051365 -0.021426968 0.028979903 -0.03301995
0003d0 c1 8a 17 3c 60 69 29 bd 2c fb 1b bd 2e 11 dc 3a
       0.00924939 -0.04136026 -0.038081333 0.0016789788
0003e0 45 1f 36 bb 98 9a 78 bc 1c 3d 2f bd 39 ac 31 bc
       -0.0027789634 -0.015173577 -0.042782888 -0.010844284
0003f0 9c f6 15 bc 95 de d2 bb 57 3b ac bc 5c bb 6f bb
       -0.009153035 -0.0064352253 -0.02102439 -0.003658018

encoder.conv4.bias f4 [32]
000000 17 07 20 b8 8d 53 16 b7 72 e6 73 38 51 c2 6c 38
       -3.8153576e-05 -8.96015e-06 5.8150334e-05 5.6447756e-05
000010 a8 ff 1d b9 24 3e 24 b9 9d 16 50 b9 76 23 9b b8
       -0.00015067926 -0.00015663408 -0.0001984485 -7.397581e-05
000020 08 58 70 b8 e0 60 0f b8 b2 ed cf b6 a2 76 27 39
       -5.7302444e-05 -3.418408e-05 -6.196752e-06 0.00015970555
000030 41 1f ae 36 62 53 93 b7 e7 24 db b7 25 e5 39 38
       5.1892425e-06 -1.7562594e-05 -2.6124018e-05 4.4320845e-05
000040 9c c2 a2 b7 47 ed f2 b7 82 3a 14 38 99 cf 29 b8
       -1.9402527e-05 -2.8959139e-05 3.534044e-05 -4.048608e-05
000050 0a 0c 81 38 d5 29 2f b9 b4 19 ae 38 ec 34 3d b8
       6.153442e-05 -0.00016704884 8.301754e-05 -4.51104e-05
000060 c9 97 a5 38 93 3a a6 b7 5f bb 14 38 4a b0 1b 39
       7.896085e-05 -1.9816018e-05 3.5460453e-05 0.00014847625
000070 16 76 b7 38 0a e2 88 b7 50 5d c0 37 b4 20 a2 38
       8.748115e-05 -1.6317721e-05 2.2931636e-05 7.7308534e-05

encoder.bn2.weight f4 [32]
000000 d7 ba 82 3f 63 40 61 3f da e2 7f 3f cc c2 6f 3f
       1.0213269 0.8798887 0.99955523 0.9365661
000010 d6 4b 60 3f 60 28 59 3f bc 83 83 3f 92 4f 69 3f
       0.87615716 0.8482723 1.0274577 0.9113704
000020 01 50 7e 3f 50 36 43 3f 46 c5 68 3f 13 9d 58 3f
       0.99340826 0.7625475 0.90926015 0.84614676
000030 d6 f4 36 3f ae 04 74 3f b9 9e 84 3f 0e 70 6e 3f
       0.7146734 0.9531964 1.0360938 0.9313973
000040 ca bc 5d 3f 14 7a 82 3f 2c 49 83 3f a3 ee 69 3f
       0.86616194 1.0193505 1.0256705 0.91379756
000050 de de 71 3f 93 ae 69 3f 3f 46 5e 3f 85 19 66 3f
       0.94480693 0.91282004 0.8682594 0.8988269
000060 c3 d3 5c 3f ba 77 63 3f 10 96 85 3f e1 5f 86 3f
       0.8626062 0.88854563 1.043642 1.049801
000070 f3 97 4f 3f 1e 58 82 3f 26 e6 69 3f ac 84 80 3f
       0.8109123 1.0183141 0.91366804 1.0040488

encoder.bn2.bias f4 [32]
000000 ab f7 e4 3c 10 59 9e bd 00 83 7b bd 5b 67 27 bd
       0.027950129 -0.07731831 -0.06140423 -0.04087005
000010 f7 a0 7f bd 06 cf 92 3d 66 3b 1b 3d ed f8 89 bd
       -0.062409367 0.07168393 0.037898444 -0.06736932
000020 f0 12 c7 3a af 76 11 bd f6 5c 7b bd 43 b3 12 bd
       0.0015188139 -0.035513576 -0.06136795 -0.03581549
000030 22 47 22 bd b5 3d a1 bd cf 8b a2 3d 63 cb d2 bd
       -0.03961862 -0.07873098 0.079368226 -0.10292699
000040 ed 3f 89 bd e8 0e 9f bc cc 53 8e 3d 19 1c 82 bd
       -0.06701646 -0.019416288 0.06949577 -0.063530155
000050 2f 35 29 bd c4 76 ed 3b 43 32 79 3d 02 50 1e be
       -0.041310485 0.007246824 0.06083895 -0.15460208
000060 1a ac aa bd 6c 26 94 3c 3d bc 9b 3d 61 68 de 3a
       -0.08333607 0.018084727 0.07604263 0.0016968363
000070 67 db 84 3d 00 68 b6 3b a9 26 3d bd 43 1a 91 3d
       0.0648716 0.005566597 -0.046179447 0.07085087

encoder.bn2.running_mean f4 [32]
000000 46 50 0c 41 b6 fe 0c 41 53 a9 e3 c0 c0 b9 ae c0
       8.769598 8.812185 -7.1144195 -5.4601746
000010 71 ac 08 c1 b7 93 33 41 23 1b 05 41 26 c2 e9 40
       -8.5421 11.223563 8.319125 7.3049498
000020 1a 1d 25 41 02 c2 1f 41 bb 85 e9 40 ff a7 fb 3f
       10.319605 9.984865 7.2975745 1.9660643
000030 23 f8 06 41 3f 12 48 41 bb fd 01 41 87 cb 20 41
       8.43558 12.504455 8.124446 10.049689
000040 ac 13 de 40 5b 10 5c 41 f0 29 2e 41 c6 c1 15 41
       6.9399014 13.753993 10.885239 9.359808
000050 57 94 96 40 93 00 b2 40 73 f0 fc 40 0d 30 ae 40
       4.705608 5.56257 7.9043517 5.4433656
000060 1d a3 af c0 2a 05 92 40 4c 1c 33 41 8d ed b4 40
       -5.4886613 4.5631304 11.194408 5.653998
000070 39 f0 29 41 ca 0a 17 41 77 7f 1c 41 47 10 01 41
       10.621148 9.440134 9.781119 8.066474

encoder.bn2.running_var f4 [32]
000000 38 ed 48 43 b6 5a b9 42 10 a4 04 43 a7 81 8a 41
       200.92664 92.67717 132.64087 17.313307
000010 b3 87 dd 42 32 c1 21 43 d3 ed 55 43 da aa 08 43
       110.76504 161.75467 213.929 136.66739
000020 da f2 3d 43 11 ec 38 43 ad f5 cb 42 32 70 d5 42
       189.94864 184.92213 101.979836 106.71913
000030 c9 0d 17 43 a0 bd 73 43 b6 a3 3c 43 01 8a 24 43
       151.05385 243.74072 188.6395 164.53908
000040 41 95 2d 43 c6 91 9a 43 00 21 64 43 99 bc 15 43
       173.58302 309.13885 228.1289 149.73671
000050 55 b1 07 43 53 60 9e 42 d9 8f 65 43 6c 9c cb 42
       135.6927 79.18813 229.5619 101.80551
000060 57 58 4a 42 b1 e2 55 42 7a 4a 53 43 f7 e6 53 43
       50.58627 53.47138 211.29092 211.9022
000070 f2 ea 3c 43 b7 65 32 43 e3 8f 16 43 16 0e 86 43
       188.91776 178.39732 150.56206 268.11005

encoder.conv5.weight f4 [32, 32, 5, 5]
000000 91 88 cc bc 6b 47 4b bd e7 d0 62 bd a5 a1 9e bd
       -0.024967464 -0.049628656 -0.055375006 -0.07745675
000010 6e d3 a0 bd 76 47 e6 bc b5 57 53 bd 63 38 13 bd
       -0.07852827 -0.028110247 -0.051597316 -0.035942446
000020 fb 1a b4 bd b1 8f 98 bd bd 5d 1c bd 23 b4 b2 bd
       -0.087942086 -0.07449282 -0.038175333 -0.087257646
000030 9e c6 bc bd 0b eb a5 bd 30 73 3d bd cd b2 77 bd
       -0.09217571 -0.081014715 -0.04625243 -0.060473252
000040 ba 77 ef bc a2 31 49 bd 8b 59 ad bd d6 13 19 bd
       -0.029231895 -0.0491196 -0.084643446 -0.037372433
000050 c3 4a 65 bd 31 82 e8 bc 09 5f 8a bd 25 09 9a bd
       -0.0559795 -0.028382393 -0.06756408 -0.075212754
000060 0c f4 57 bd d9 33 43 bd b7 44 a5 bd 5a a9 64 bd
       -0.052722976 -0.047656868 -0.08069747 -0.05582557
000070 c0 ef 12 bd 6a 59 49 bd 82 b9 65 bd 0a b9 50 bd
       -0.035873175 -0.049157538 -0.056085117 -0.050957717
000080 8e c2 6e bd 19 55 fb bc 2e 3d 59 bd c9 10 c2 bc
       -0.05829101 -0.030680226 -0.05303686 -0.023689644
000090 61 e5 7f bd bd b5 1c bd 23 ed 9e bd 9f f3 43 bd
       -0.062474612 -0.038259257 -0.07760074 -0.047839757
0000a0 2f 72 5d bd 74 23 37 bd 6c e1 a4 bd 3d 55 4d bd
       -0.054063972 -0.044711545 -0.08050808 -0.050130118
0000b0 4f 3a 70 bd 6c 59 8e bd 90 a6 c6 bc 35 20 8e bd
       -0.058649357 -0.069506496 -0.024249345 -0.06939737
0000c0 67 71 b5 bd b1 94 b7 bd de 8c bd bd 50 f0 82 bd
       -0.088595204 -0.089639075 -0.09255384 -0.06393492
0000d0 1f 7a 74 bd 3d 36 48 bd 69 64 1e bd 92 e4 9b bd
       -0.059686776 -0.04887985 -0.038669977 -0.07611956
0000e0 d2 57 82 bd 68 67 71 bd 34 67 a7 bd f8 2a 09 bd
       -0.06364407 -0.058936507 -0.08173981 -0.033488244
0000f0 7b 59 8d bd 3f 2c 45 bd 7e 20 6e bd cb d1 29 bd
       -0.06901833 -0.0481379 -0.058136456 -0.04145984
000100 3a e2 12 bd 33 30 14 bd 31 6b af bd 58 ad 58 bd
       -0.035860278 -0.03617878 -0.08565367 -0.05289969
000110 d3 d5 9a bd f0 e1 6e bd bf 88 11 bd 32 cd 04 bd
       -0.07560315 -0.05832094 -0.0355308 -0.032422252
000120 1a eb f1 bc c3 94 ba bd 2a db 39 bd 1b 3c b4 bd
       -0.02953105 -0.09110405 -0.045375027 -0.08800527
000130 3e 1d bb bd b5 0e 48 bd 1d 7e 78 bd 8e e8 16 bd
       -0.09136437 -0.04884215 -0.060667146 -0.036842875
000140 f2 6e 80 bd 48 79 59 bd e9 5e ec bc a7 5f 5e bd
       -0.06271161 -0.05309418 -0.02885385 -0.05429044
000150 71 b2 80 bd 83 31 73 bd f5 1c 92 bd e9 58 95 bd
       -0.06284035 -0.05937339 -0.07134429 -0.07292349
000160 5f b9 45 bd 3a a9 8d bd d7 a9 b0 bd dd b5 49 bd
       -0.048272487 -0.06917043 -0.086261444 -0.049245704
000170 bc 45 d6 bc 51 ec 3c bd e1 ba 1b bd 1f f2 9d bd
       -0.026156299 -0.046123806 -0.03802002 -0.077121966
000180 20 37 a6 bd 6f 96 b4 bd 11 5d a0 bd 8f 38 32 bd
       -0.08115983 -0.088177554 -0.07830251 -0.04351097
000190 64 5b 3d bd 78 54 2f bd 5c 4a b2 bd 6f 76 28 bd
       -0.046229735 -0.042805165 -0.08705589 -0.041128572
0001a0 22 4e 7b bd a4 b1 b0 bd 4a 41 be bd 31 53 b4 bd
       -0.06135381 -0.08627632 -0.09289797 -0.0880493
0001b0 97 8d ae bd 76 13 ab bd 0d 4e 39 bd e9 c3 26 bd
       -0.085231 -0.08353321 -0.04524045 -0.04071418
0001c0 a8 a1 13 bd 3e 67 1a bd 42 9b b7 bd eb ef 46 bd
       -0.03604284 -0.037696116 -0.0896516 -0.048568647
0001d0 3f 2a 9a bd f0 c8 ba bd 0a 81 5a bd 9d 3f dd bc
       -0.07527589 -0.09120357 -0.053345717 -0.027007872
0001e0 d1 20 3d bd ed bb 8d bd 8f 2b 44 bd 60 27 3f bd
       -0.046173874 -0.069206096 -0.047893103 -0.04666841
0001f0 f8 ea 56 bd 89 a5 b1 bd d3 77 05 bd 39 4b 37 bd
       -0.052470177 -0.086741515 -0.032584976 -0.044749472
000200 02 19 9f bd dc 95 11 bd 45 a4 85 bd 41 58 cc bc
       -0.07768442 -0.035543308 -0.065254726 -0.024944426
000210 db 41 1a bd 88 16 31 bd 80 b8 9d bd c1 3f 9e bd
       -0.03766046 -0.043234378 -0.07701206 -0.07727004
000220 d4 56 9a bd 65 19 b4 bd e1 55 ad bd a6 0c e5 bc
       -0.075360924 -0.08793906 -0.08463646 -0.027960133
000230 62 2a 20 bd 52 32 11 bd 85 2b e3 bc 8d 90 03 bd
       -0.03910292 -0.03544838 -0.027730713 -0.032120276
000240 a2 52 9e bd c4 e8 4f bd b5 5c b9 bd 62 3f a1 bd
       -0.07730605 -0.050759092 -0.090508856 -0.078734174
000250 88 28 77 bd 02 40 90 bd 08 4d 90 bd fe db 9a bd
       -0.060341388 -0.070434585 -0.070459425 -0.075614914
000260 6b 86 8b bd 89 4d 10 bd c9 d7 bb bd d1 9e 5d bd
       -0.068127476 -0.035230193 -0.09172017 -0.054106537
000270 8f af bf bd 13 29 af bd bf 8a 10 bd 48 3b 72 bd
       -0.09359657 -0.08552756 -0.03528857 -0.059138566
000280 d1 f7 43 bd b9 67 bc bd 90 cc 17 bd 4e 25 46 bd
       -0.047843758 -0.09199471 -0.03706032 -0.04837542
000290 a8 eb d2 bc e1 30 b0 bd da 9e 08 bd c0 dd 24 bd
       -0.025747135 -0.08603073 -0.033354618 -0.04025054
0002a0 61 90 e6 bc 37 ee d4 bc 54 71 fb bc 27 0e 81 bd
       -0.028145017 -0.025992496 -0.030693687 -0.063015275
0002b0 64 5a 52 bd 2b 75 43 bd 3e b5 9f bd 5c 50 4b bd
       -0.051355734 -0.047719162 -0.07798241 -0.049637184
0002c0 85 87 99 bc 10 9c 11 bd 2f 17 45 3d df f7 56 ba
       -0.018741379 -0.035549223 0.048117813 -0.0008200388
0002d0 97 03 63 bd 45 73 0e 3d 2f 8f bf bc ae 58 06 3d
       -0.055423345 0.0347779 -0.023383705 0.032799415
0002e0 81 02 48 bd fd 34 93 bd ed 83 a1 bc d3 04 5e bd
       -0.048830513 -0.07187841 -0.019716227 -0.05420382
0002f0 0f 89 df bc ff c4 56 bd ce 68 c6 bc f9 af 95 bd
       -0.027287034 -0.052433964 -0.024219897 -0.07308955
000300 0d de 99 bd ed f0 7f bd 1a 4d 87 bd d0 a9 7e bd
       -0.07513056 -0.062485624 -0.06606503 -0.062173665
000310 45 dc 3c bd 20 63 98 bd 9e 78 89 bd 02 cb 9e bd
       -0.046108503 -0.074407816 -0.06712459 -0.077535644
000320 7a 29 a9 bd 68 fa a6 bd 27 0a 45 bd 9e dd c8 bc
       -0.08259864 -0.0815323 -0.048105385 -0.024519738
000330 fb 22 97 bd 49 70 9e bd 9f 33 bb bd 4a 93 df bc
       -0.07379719 -0.077362604 -0.09140705 -0.027291913
000340 83 52 64 bd 97 ac a6 bd 7f 55 07 bd 0a da 07 bd
       -0.05574275 -0.08138388 -0.03304052 -0.033166923
000350 59 f9 27 bd a6 c7 7c bd 21 fd 39 bd c9 19 9d bd
       -0.04100928 -0.061713837 -0.04540742 -0.07670934
000360 33 1e 4a bd 20 b0 32 bd 5d 9d 94 bd 1a 99 8c bd
       -0.049345206 -0.043624997 -0.07256577 -0.06865139
000370 aa 36 61 bd 1f d3 10 bd b5 13 4c bd 65 89 ab bd
       -0.054983772 -0.03535759 -0.04982348 -0.08375815
000380 fa e3 0e bd b7 0f 06 bd 86 6d 3e bd cc c5 3e bd
       -0.034885384 -0.03272983 -0.04649117 -0.046575353
000390 e6 21 9d bd 00 ac b8 bd eb f0 a9 bd bc 19 d5 bc
       -0.07672481 -0.090171814 -0.082979046 -0.026013248
0003a0 0a e8 07 bd 34 20 ab bd bb fa 8d bd 9d 7a 28 bd
       -0.033180274 -0.08355752 -0.06932589 -0.041132558
0003b0 a0 fa 04 bd 94 b3 ab bd 3d ff 3f bd 36 4a 83 bd
       -0.032465577 -0.08383861 -0.046874274 -0.06410639
0003c0 db bf 33 bd 29 82 42 bd dc 21 56 bd 1b 4c 92 bd
       -0.04388414 -0.04748741 -0.052278385 -0.07143422
0003d0 3e d7 ac bd f3 8a 3a bd 61 8e ae bd 2e 1a a2 bd
       -0.08439492 -0.04554267 -0.0852325 -0.0791515
0003e0 f1 ec 63 bd 77 35 2d bd c1 66 41 bd 65 8c 70 bd
       -0.055645887 -0.042287316 -0.047217134 -0.05872764
0003f0 36 7b 90 bd 05 11 ca bc d5 61 8c bd fb 78 51 bd
       -0.070547506 -0.024666319 -0.068545975 -0.051140767

encoder.conv5.bias f4 [32]
000000 3c 5e 29 bd 04 d8 b5 3d 4d 2a 82 bd 6a ea 46 bd
       -0.041349635 0.08879092 -0.063557245 -0.0485634
000010 36 cc 3a 3d 6b 7c b6 bd 05 60 74 3d 63 2e c0 bd
       0.045604907 -0.089104496 0.059661884 -0.093838476
000020 95 ee af bd 16 43 49 bd 4c 2e 4c bd 3f 6c 73 3d
       -0.08590428 -0.049136244 -0.04984884 0.059429403
000030 78 10 ad bd 27 ff e6 bc ed 72 43 3d fc 44 96 3c
       -0.08450407 -0.028197838 0.047717024 0.018343441
000040 0b fd ff bc 08 28 d5 bc 8f ec 56 3d cf 84 72 bd
       -0.03124859 -0.026020065 0.052471694 -0.059208687
000050 59 19 28 bd 38 ca 17 bd 2d 07 32 3d 86 3e 93 bd
       -0.0410398 -0.037058085 0.043463875 -0.0718966
000060 1d 11 33 bd ac a9 32 bd 3f c7 9b bd 3a 59 50 bd
       -0.043717492 -0.043618843 -0.076063626 -0.050866343
000070 c4 42 ed bc 67 e1 0c bd 9a 65 ef 3c 72 b8 ab bd
       -0.0289625 -0.034394648 0.029223252 -0.083847895

encoder.conv6.weight f4 [32, 32, 5, 5]
000000 80 b5 26 3d 46 9a 49 3d cd d3 22 3d f3 4d 2a 3d
       0.040700436 0.049219392 0.03975277 0.041578244
000010 26 95 bc 3d d1 00 93 3d 57 9e 3b 3d fb 32 82 3d
       0.09208135 0.0717789 0.0458053 0.0635738
000020 99 76 87 3d 3e e6 50 3d 7b c5 27 3d f9 94 3a 3d
       0.066144176 0.051000826 0.040959816 0.045552228
000030 52 ea 7c 3d 07 48 3a 3d 56 ee 83 3d 82 40 59 3d
       0.061746903 0.045478847 0.06441943 0.053040035
000040 06 3a f4 3c f0 d7 fc 3c 52 24 b2 3d ff 2d 88 3d
       0.029812824 0.030864686 0.08698334 0.06649398
000050 97 73 db 3c 8c ce f1 3c 80 a6 9c 3d cb eb 6d 3d
       0.026788516 0.029517435 0.07648945 0.058086198
000060 2f 19 90 3d 3c 6a 92 bd f3 ac 71 3d 53 97 46 bd
       0.070360534 -0.07149169 0.059002828 -0.048484158
000070 77 79 91 3d c5 dd 57 3d f9 c3 b3 bd 66 37 a5 3d
       0.07103246 0.05270173 -0.08777613 0.08067207
000080 da e5 a7 bb 98 9a a0 3d 49 93 00 3d 6c 42 16 bd
       -0.005123836 0.078419864 0.031390462 -0.03668444
000090 ea 4d da 3c 1a 22 28 3d 7a 59 a6 3d 50 5d 83 3d
       0.02664848 0.041048147 0.08122535 0.06414282
0000a0 3b 73 4d 3d eb 97 b1 3d be 46 3d 3d 58 e5 03 3d
       0.05015872 0.08671554 0.046210043 0.03220114
0000b0 dd a9 54 3d ad e1 49 3d 1d 1e 77 3d 23 87 43 3d
       0.051919807 0.049287487 0.060331453 0.0477363
0000c0 8f f9 2e 3c 44 ad 15 3d 58 af ab 3d 14 7f 0b 3d
       0.010679617 0.036542192 0.083830535 0.034056738
0000d0 a4 bf a2 3d 71 f9 72 3d e4 27 0b 3d 14 5c 86 3d
       0.07946709 0.059319917 0.03397359 0.06560531
0000e0 75 eb 2d 3d 1f ad 13 3d 4d f6 90 3d a3 aa 5a 3d
       0.042460877 0.036053773 0.07078228 0.053385388
0000f0 a0 2d 34 3d 25 30 e3 3c e5 01 b5 3d c6 04 a2 3d
       0.043988824 0.027732918 0.08838252 0.07911067
000100 72 94 ab 3d 2f e5 b9 3d b8 87 a7 3d 45 8e f9 3c
       0.08377923 0.090769164 0.08180183 0.030463347
000110 ca fc a1 3d bb 21 0a 3d 14 ab 5b 3d 0a 69 5b 3d
       0.07909544 0.033723574 0.05362995 0.05356697
000120 b8 3f a3 3d 0e 5c 99 3d 44 b2 e8 3c e2 a6 13 3d
       0.07971138 0.07488261 0.028405316 0.036047824
000130 60 fd 5b 3d a8 e6 48 3d 74 c7 7d 3d 83 a9 57 3d
       0.053708434 0.049048096 0.06195779 0.052651893
000140 8d e5 79 3d 62 cd 2f 3d a9 2f 66 3d 18 85 88 3d
       0.061009932 0.042920478 0.056197796 0.066660106
000150 e0 45 6b 3d a1 90 a7 3d 7d e6 3f 3d 73 bd 24 3d
       0.057439685 0.08181883 0.04685067 0.040219735
000160 f6 09 a3 3d 7e 45 8c 3d 58 a2 e2 3c 45 20 0d 3d
       0.07960884 0.06849192 0.027665302 0.034454603
000170 64 46 ad 3d 0a 4c b5 3d 51 8a a3 3d f6 44 35 3d
       0.084606916 0.08852394 0.07985366 0.04425522
000180 c5 16 2b 3d d6 33 83 3d b3 74 48 3d 23 11 23 3d
       0.04176976 0.06406371 0.048939418 0.039811265
000190 65 8f bf 3d d7 e7 46 3d d5 d0 24 3d 0d 3a 36 3d
       0.09353522 0.048560943 0.04023822 0.044488955
0001a0 98 6e af 3d 81 c3 d6 3c 78 fa a1 3d e8 5c 1d 3d
       0.08566016 0.02621627 0.07909101 0.03841868
0001b0 f9 57 9e 3d fb 54 a6 3d 72 5e 4b 3d 7b 49 9e 3d
       0.07731623 0.081216775 0.049650617 0.07728859
0001c0 29 2f de 3c a5 e3 02 3d f0 9d e9 3c a1 a0 87 3d
       0.027122097 0.03195538 0.028517693 0.066224344
0001d0 92 ed 5d 3d b2 2a 93 3d c3 d7 3b 3d 3d 86 01 3d
       0.054181643 0.07185878 0.045860063 0.03162216
0001e0 77 cb 90 3d 49 0c 82 3d e9 d1 bc 3d 36 3f 96 3d
       0.07070058 0.063499995 0.09219725 0.07336275
0001f0 54 14 fd 3c 3a ac 92 3d 9b d5 1e 3d cb e9 0d 3d
       0.030893482 0.07161756 0.03877793 0.03464679
000200 fc 64 06 3d 92 5f 63 3d e1 19 a7 3d 78 59 84 3d
       0.03281115 0.055511065 0.08159233 0.06462377
000210 f2 f0 a9 3d ac 60 65 3d 3a fa 42 3d 8d fc 76 3d
       0.0829791 0.056000397 0.047601916 0.060299445
000220 00 05 a6 3d 6e 1e fe 3c b4 ad 4b 3d 20 b1 8e 3d
       0.081064224 0.03102037 0.049726203 0.06967378
000230 28 c2 16 3d d3 63 a2 3d d6 8d 97 3d 17 09 3d 3d
       0.036806256 0.07929196 0.074001 0.046151247
000240 b1 f3 05 3d c7 98 64 3d 80 c4 27 3d db c5 78 3d
       0.032703105 0.055809762 0.04095888 0.060735565
000250 0d 2b 68 3d cc 77 92 3d 37 43 25 3d 7a 99 71 3d
       0.05668168 0.07151756 0.040347304 0.058984257
000260 0c 55 19 3d 6a d7 aa 3d 1c 01 95 3d a4 35 a6 3d
       0.037434623 0.08341868 0.07275602 0.081157
000270 f5 e1 00 3d 0e 99 ba 3d 90 9d bf 3d e5 fa b1 3d
       0.03146549 0.09111224 0.093562245 0.086904325
000280 83 26 b6 3d ec 3a 46 3d 12 4c 3d 3d 80 20 b9 3d
       0.08894064 0.048396036 0.046215124 0.09039402
000290 56 0c 59 3d d1 8c 92 3d 7f db b5 3d 15 94 9c 3d
       0.05299028 0.07155765 0.08879756 0.07645432
0002a0 d1 de 75 3d f5 41 94 3d fc 10 b3 3d 53 b5 bb 3d
       0.060026947 0.07239143 0.08743474 0.09165444
0002b0 f8 9c 5a 3d 6b ca b8 3d b3 93 67 3d d6 59 36 3d
       0.053372353 0.09022983 0.05653734 0.044519268
0002c0 94 c3 b7 3d 88 cf 32 3d 7a 9c 67 3d 97 49 87 3d
       0.089728504 0.04365495 0.056545712 0.06605833
0002d0 63 a1 89 3d 8e bc 31 3d 15 c8 83 3d bc 0f 45 3d
       0.06720235 0.04339271 0.06434647 0.04811071
0002e0 47 a8 af 3d dc 31 b2 3d bc 17 f8 3c 67 0a 08 3d
       0.08577018 0.08700916 0.030284755 0.033213045
0002f0 d5 77 69 3d a2 c6 7e 3d ae 40 89 3d 76 e8 d4 3c
       0.056999046 0.06220115 0.0670179 0.025989752
000300 be d1 ad 3d b2 f0 04 3d e1 1b a1 3d 16 44 a2 3d
       0.08487271 0.032456107 0.078666456 0.079231426
000310 10 90 8f 3d c6 f7 0f 3d 2b ff 98 3d c2 f2 c6 3c
       0.070098996 0.035148405 0.074705444 0.024285678
000320 d9 08 7d 3d cb 26 37 3d d0 c7 47 3d ce de a0 3d
       0.061776016 0.04471473 0.04877454 0.078549966
000330 f6 b7 13 3d 74 62 1a 3d a2 72 ca 3c a6 3c 0b 3d
       0.03606411 0.03769155 0.024712864 0.033993386
000340 69 0e 1e 3d 60 cc df 3c 0d 8f 82 3d 39 a4 6a 3d
       0.03858796 0.027319133 0.06374941 0.05728552
000350 1f ac 97 3d 83 56 7d 3d 81 73 ad 3d e4 04 b9 3d
       0.07405876 0.061850082 0.08469296 0.09034136
000360 9c 65 a7 3d f6 7c f0 3c 2d 29 23 3d 1b 40 df 3c
       0.08173677 0.029356461 0.03983419 0.027252248
000370 6d 87 60 3d 05 6f 3d 3d 6d 79 1f 3d e6 4f b1 3d
       0.054816652 0.046248455 0.03893416 0.086578175
000380 60 72 25 3d e8 f3 2b 3d 76 13 c8 3c 57 53 36 3d
       0.04039228 0.041980654 0.024423342 0.044513073
000390 13 50 85 3d 0d d7 86 3d 65 ab 82 3d fd 72 ae 3d
       0.065094136 0.065839864 0.06380347 0.08518026
0003a0 ca af d9 3c c1 3d ea 3c 54 21 1f 3d 0b c2 65 3d
       0.02657308 0.0285939 0.038850144 0.056093257
0003b0 26 40 b3 3d e6 19 b2 3d 82 a3 76 3d 44 3c 72 3d
       0.0875247 0.08696346 0.060214527 0.059139505
0003c0 be 41 7c 3d b4 83 14 3d de 08 90 3d 60 b0 d5 3c
       0.061586134 0.036258414 0.07032941 0.026085079
0003d0 34 97 74 3d 8c 72 58 3d c7 65 4c 3d 4c 8d 21 3d
       0.05971451 0.052843615 0.04990175 0.03944139
0003e0 0d 65 dc 3c af a0 a0 3d 6f db 2f bd 51 7e 8a bd
       0.026903654 0.07843148 -0.042933878 -0.06762374
0003f0 03 c2 d1 bc ca 21 ca 3c 82 80 8d 3d 91 7a 84 bd
       -0.025605207 0.024674315 0.069092765 -0.0646869

encoder.conv6.bias f4 [32]
000000 43 32 56 b8 0e 09 75 b8 1a 50 8b b7 7f e9 83 b8
       -5.1068386e-05 -5.8420985e-05 -1.6607391e-05 -6.290059e-05
000010 16 df 49 38 45 41 9e b6 19 2f 2e 36 33 ff e5 b7
       4.81299e-05 -4.7163653e-06 2.5955435e-06 -2.7417764e-05
000020 fd 00 98 b8 b9 63 ce b7 4a 7d 03 b7 b7 3a 75 b8
       -7.248109e-05 -2.460355e-05 -7.83738e-06 -5.8467234e-05
000030 f6 b3 9b 38 af b1 0b 38 c1 0d 36 b8 b3 49 d5 b7
       7.424496e-05 3.3305663e-05 -4.340499e-05 -2.5425898e-05
000040 03 29 c6 b7 d0 aa e8 b7 7d 09 6e 38 e2 f8 bb 38
       -2.3622537e-05 -2.7736096e-05 5.675246e-05 8.963213e-05
000050 ca d9 f4 b7 b4 59 e3 b7 aa 1c 89 38 f7 a6 d8 37
       -2.9188483e-05 -2.710228e-05 6.538008e-05 2.5826956e-05
000060 e4 1c 98 b7 0f f5 42 b7 17 f2 ac b8 86 3d f8 b7
       -1.8133265e-05 -1.1620358e-05 -8.246692e-05 -2.9592553e-05
000070 f0 c5 a9 37 14 15 4c b6 90 2e 0c b9 04 60 e9 38
       2.0238542e-05 -3.0410638e-06 -0.00013368786 0.0001112819

encoder.bn3.weight f4 [32]
000000 f4 6a 53 3f de 24 37 3f b5 fd 5e 3f 40 70 4f 3f
       0.8258507 0.7154063 0.87105876 0.81030655
000010 e2 c0 64 3f 5a 70 76 3f b0 49 84 3f 31 73 5f 3f
       0.89356816 0.96265185 1.0334988 0.87285143
000020 30 38 71 3f 60 dd 84 3f b4 f3 70 3f cc 0c 82 3f
       0.9422636 1.0380058 0.9412186 1.0160155
000030 59 e3 6a 3f 4f bd 85 3f bf 10 46 3f 29 89 84 3f
       0.91753155 1.0448397 0.773693 1.0354358
000040 cc e7 85 3f 2a b2 69 3f a6 34 84 3f c0 4c 6a 3f
       1.0461364 0.9128748 1.0328567 0.9152336
000050 97 8c 69 3f 46 49 54 3f ba 0a 4e 3f 8a d5 82 3f
       0.9123015 0.82924306 0.8048512 1.0221417
000060 d4 0b 68 3f 25 ae 59 3f 4b d8 68 3f 4a cb 84 3f
       0.9064305 0.8503135 0.90955037 1.0374539
000070 40 f4 5e 3f 38 bd 63 3f 8e 95 71 3f 66 e7 82 3f
       0.87091446 0.889606 0.9436883 1.0226867

encoder.bn3.bias f4 [32]
000000 5b fa 88 bd 88 1e 44 bd 9d 99 f4 bd 40 59 90 be
       -0.066883765 -0.04788068 -0.11943362 -0.28193092
000010 d7 dc bb bd fd a2 74 bc a4 2a 71 3d db 10 7f bd
       -0.09172981 -0.014931438 0.058878556 -0.062271934
000020 bb 5c 1d bd 55 6a 25 3d 3d 66 43 bd 16 b5 85 bd
       -0.038418513 0.04038461 -0.047704924 -0.0652868
000030 b9 b6 5c bd aa 5f 42 3d db 0c ee bd b0 cb 2f 3d
       -0.053885195 0.047454514 -0.11623546 0.04291886
000040 c7 16 63 3d 6f 9a 01 3d 1b 14 08 3d db 07 91 bd
       0.055441644 0.03164142 0.0332223 -0.070815764
000050 d6 50 87 bd d3 1b 64 bd f8 d1 ed bd 78 80 e4 3c
       -0.06607215 -0.055690598 -0.11612314 0.02789329
000060 69 a0 9d bd c6 d7 01 be bd 21 ca bd f1 dc 92 3c
       -0.076966114 -0.12679967 -0.09869716 0.017927619
000070 73 17 35 bd 5a fe aa bc 1c 6a 38 bd 97 6f fc bc
       -0.044211816 -0.020873237 -0.04502307 -0.030814929

encoder.bn3.running_mean f4 [32]
000000 0e 33 e3 42 01 84 81 42 99 f6 05 c2 35 dd bd c2
       113.59972 64.75782 -33.490818 -94.932045
000010 34 61 50 c2 4e d5 e1 42 32 f8 e2 42 97 48 aa 42
       -52.094925 112.91661 113.48476 85.14178
000020 0e 2c c6 42 82 8a f6 42 1c 5a 75 42 ef 98 d4 42
       99.086044 123.27052 61.337997 106.2987
000030 14 a2 e5 42 f7 9c d2 42 58 7c 7a 42 8a da e4 42
       114.81656 105.30657 62.62143 114.426834
000040 e7 39 04 43 f4 ae 98 c2 87 7d b6 42 c5 5a 3f 42
       132.22618 -76.341705 91.24517 47.838642
000050 f5 0b 86 42 b0 2a f6 42 ef be a1 42 93 97 d5 42
       67.02335 123.083374 80.87292 106.79604
000060 e9 21 22 c2 df 48 dd 42 38 91 db c2 69 dc f4 42
       -40.533115 110.64233 -109.78363 122.43049
000070 b9 82 f8 42 e2 f9 cd 42 1d 02 bb 42 f4 36 cd 42
       124.25532 102.98805 93.50413 102.60733

encoder.bn3.running_var f4 [32]
000000 e4 23 f2 46 47 bb 10 46 fa 92 33 45 1e 33 ad 46
       30993.945 9262.819 2873.186 22169.559
000010 d4 43 c6 45 66 d0 f1 46 5d 5e eb 46 2c b9 86 46
       6344.4785 30952.2 30127.182 17244.586
000020 59 6c b3 46 8a 5f 04 47 c0 86 17 46 a3 16 d2 46
       22966.174 33887.54 9697.6875 26891.318
000030 2a 96 f6 46 25 c2 d1 46 51 17 10 46 d4 dd e5 46
       31563.082 26849.072 9221.829 29422.914
000040 85 1b 1c 47 5f c6 57 46 47 64 99 46 ab 23 e0 45
       39963.52 13809.593 19634.139 7172.4585
000050 53 b5 2a 46 b4 ad 0c 47 70 d7 52 46 aa 19 d2 46
       10925.331 36013.703 13493.859 26892.832
000060 7f f9 7c 45 14 dd be 46 34 64 dc 46 a6 cc 06 47
       4047.5935 24430.54 28210.102 34508.65
000070 28 f5 0e 47 f7 92 c5 46 ec d0 ac 46 4a d0 c9 46
       36597.156 25289.482 22120.46 25832.145
